pytorch/model.pth (torch, 180551 bytes, 10 tensors)

conv1.weight f4 [6, 1, 5, 5]
-0.16374458 -0.5442261 0.62302136 -0.12976587 0.2962165 -0.0021984268 -0.334227 0.25779614
-0.40459207 0.38514814 0.27678254 0.12007783 0.8302085 -0.7798474 0.06825506 -0.67007124
0.09695767 1.523184 -0.3163611 -0.43640432 -1.0151654 -1.1448685 0.41721556 0.9814845
0.18325049 0.5215093 -0.38330227 -1.0058261 -1.1351252 -0.928873 0.5735182 -0.6772139
-0.85067683 -0.6017541 -0.29972264 0.39988017 0.51779604 0.23341621 0.037669286 0.20916562
0.4778946 0.113339506 0.17848527 0.15291962 0.04218493 -0.12516087 0.21485877 0.57552105
0.3781866 0.41080242 0.63082415 -0.6499147 0.049518283 -0.24418728 0.3641675 0.46930724
-1.1652093 -0.94880223 0.67705256 0.8580596 0.04111491 -0.8922531 -0.74036324 1.1917863
0.431615 -0.052072175 -1.0158165 0.11847682 0.8625151 0.09409867 -0.654016 -0.26300502
0.62080884 0.25966597 0.054573074 -0.37358174 0.48581952 0.053707816 -0.20281428 0.056773234
-0.159311 1.0611867 -0.59353137 -0.35530004 0.14224446 0.13018346 1.4287976 -1.6218916
-0.14721046 0.20051306 0.31820476 0.9690885 -1.2451273 -0.41125613 0.34116456 0.57880133
-0.038431793 -0.88552654 -0.030670123 0.3902769 -0.15158561 0.010122316 -0.46912402 -0.34433708
-0.27203342 -0.21126546 -0.6837065 -0.9822605 -0.38997594 0.14951512 0.28455007 -0.4616576
-0.791083 -0.6064721 -0.20540097 -0.25815573 -0.38372347 -0.1725035 -0.0065083737 -0.11666094
-0.12629408 -0.36918506 -0.23548126 -0.0757509 0.3307748 -0.08721989 0.16705294 -0.024747273
0.049609322 0.3859092 -0.027860682 0.41981012 -0.025535515 -0.038561862 0.4764367 -0.0019673991
0.28372216 -0.02541966 -0.14800775 0.16614166 0.37831867 -0.1300163 0.099729605 0.62610346
0.286052 0.29049328 0.09122296 0.182203 0.46860725 0.18237802
00000000: a9ac 27be 6752 0bbf 547e 1f3f 58e1 04be
00000010: b0a9 973e 7b13 10bb cd1f abbe dbfd 833e
00000020: b126 cfbe 2332 c53e 71b6 8d3e 5eeb f53d
00000030: 8b88 543f 14a4 47bf 4fc9 8b3d ca89 2bbf
00000040: be91 c63d b1f7 c23f 15fa a1be 6370 dfbe
00000050: f1f0 81bf 0d8b 92bf 479d d53e 9142 7b3f
00000060: 04a6 3b3e a281 053f 3240 c4be e9be 80bf
00000070: c84b 91bf 9fca 6dbf 17d2 123f e45d 2dbf
00000080: f5c5 59bf 8f0c 1abf 3f75 99be 18bd cc3e
00000090: 488e 043f a904 6f3e 1c4b 1a3d 832f 563e
000000a0: 9aae f43e 8b1e e83d d8c4 363e f696 1c3e
000000b0: 1bca 2c3d 2c2a 00be f003 5c3e 5955 133f
000000c0: ada1 c13e b254 d23e b17d 213f cf60 26bf
000000d0: afd3 4a3d 3b0c 7abe 2a74 ba3e 0a49 f03e
000000e0: 9425 95bf b4e4 72bf 5153 2d3f cba9 5b3f
000000f0: 1c68 283d b36a 64bf 7288 3dbf 748c 983f
00000100: a4fc dc3e a249 55bd 4606 82bf faa3 f23d
00000110: cacd 5c3f ceb6 c03d 986d 27bf 98a8 86be
00000120: 54ed 1e3f f0f2 843e 0488 5f3d 1b46 bfbe
00000130: 56bd f83e bafc 5b3d 8cae 4fbe 0d8b 683d
00000140: 6c22 23be f7d4 873f acf1 17bf e3e9 b5be
00000150: 88a8 113e d04e 053e d7e2 b63f 259a cfbf
00000160: 57be 16be 4c53 4d3e bceb a23e 2f16 783f
00000170: 5560 9fbf 2a90 d2be 1fad ae3e 532c 143f
00000180: a86a 1dbd deb1 62bf e93f fbbc 60d2 c73e
00000190: 4239 1bbe 12d8 253c 0631 f0be f34c b0be
000001a0: f747 8bbe f955 58be 6407 2fbf 6d75 7bbf
000001b0: edaa c7be 7e1a 193e 8cb0 913e 635e ecbe
000001c0: 6a84 4abf c141 1bbf a254 52be fd2c 84be
000001d0: 6777 c4be c2a4 30be 3244 d5bb eeeb eebd
000001e0: 3c53 01be d305 bdbe 0022 71be 4a23 9bbd
000001f0: 515b a93e 57a0 b2bd ed0f 2b3e cbba cabc
00000200: 2533 4b3d e495 c53e 163c e4bc 5af1 d63e
00000210: db2f d1bc 0bf3 1dbd 83ef f33e 7bef 00bb
00000220: 0844 913e e43c d0bc 588f 17be 0a21 2a3e
00000230: fcb2 c13e fe22 05be 093f cc3d 5148 203f
00000240: 6875 923e 89bb 943e 1ad3 ba3d 6c93 3a3e
00000250: 4aed ef3e 4ec1 3a3e

conv1.bias f4 [6]
0.031584356 0.19552144 0.0021739302 -0.071577005 -1.3099656 -0.036819182
00000000: 995e 013d c636 483e 7f78 0e3b f796 92bd
00000010: f4ac a7bf b6cf 16bd

conv2.weight f4 [16, 6, 5, 5]
0.19232152 -0.08831199 0.04426108 0.096852124 0.06555824 0.14813305 0.14856066 -0.23995455
-0.15547764 0.0033863632 -0.056000426 -0.086106904 0.034889374 0.0069855256 0.02913289 -0.10846257
-0.074011534 0.006118091 0.3421805 -0.10173007 -0.03718773 0.20113137 -0.084539935 0.02075085
0.40128696 0.080351874 0.36159095 0.07940503 -0.034963284 -0.1460283 0.062544405 -0.048786
-0.031084346 -0.14896548 0.21969266 0.12454713 0.3112775 -0.17640533 -0.2122295 0.20218968
-0.080254376 -0.038023014 -0.058807526 0.039676283 0.20399149 -0.05606817 -0.1058687 -0.061573252
-0.21964581 -0.3608498 -0.071400285 -0.31241456 0.3870763 0.14328836 0.12223006 0.14881888
-0.3255608 0.1409077 -0.16092229 -0.0330113 0.054028474 -0.2872466 0.008479297 -0.19140743
-0.23212351 0.16633251 -0.35630444 0.14105105 -0.03374354 -0.034009214 -0.02889952 -0.24667375
0.40782848 0.1613171 0.074070655 -0.38906482 0.2365224 0.14656211 0.09785412 0.10280862
-0.17367074 0.107060276 -0.03872934 -0.0048802593 0.13008161 0.050443113 -0.16752078 -0.025332062
-0.063327566 0.17069398 0.140902 0.15106985 0.054945216 -0.058833864 -0.13420163 -0.02289627
0.2715782 0.44551158 -0.086667866 -0.108549215 0.55646247 0.30838478 0.21202815 -0.21851544
0.30464754 0.103143774 -0.15146734 0.01811801 -0.22413842 0.31912497 -0.4277503 -0.35590228
0.04640906 -0.11767356 -0.114344664 -0.38060552 -0.3820793 0.09782532 0.15797031 -0.26801
-0.051616587 -0.12205216 0.6118895 0.5204535 -0.39524803 -0.17477944 -0.08209093 0.10839473
0.24428922 -0.06151334 0.066918485 0.13581222 0.13681345 0.08667161 -0.03904198 -0.15420286
-0.0911353 0.068822235 -0.119614184 -0.36417356 -0.11402496 0.022153564 0.18777207 -0.11709472
0.0592862 -0.5637443 -0.28824812 -0.2388669 -0.30862615 -0.3538083 -0.0700643 0.14416152
0.39729074 0.12824307 0.49515128 -0.25478992 0.03921187 -0.11470611 0.18110497 -0.120993376
-0.055214074 -0.012720284 -0.14195596 -0.1833317 -0.14809802 0.47104996 -0.13097674 -0.28207824
-0.24221013 -0.34779066 0.26211655 0.14098616 -0.15664321 -0.23994558 -0.40632194 0.41499317
0.3430582 0.11375219 -0.10429303 -0.26163444 -0.45522028 0.046277665 0.37761223 0.35816726
-0.053378325 0.24499181 0.17182101 -0.18446836 0.1399653 0.22839466 -0.20984851 0.14909358
0.33177426 0.21712612 0.38590884 0.03455166 0.057661608 0.03729892 0.042489745 -0.021779936
-0.30864415 -0.046503667 0.33242625 0.20948026 -0.24754263 -0.04743634 0.24370983 0.28024083
-0.12532087 -0.1355298 0.09856377 0.11076034 -0.076446265 -0.29106355 -0.22346017 -0.2385738
0.04275366 -0.10310389 -0.34057653 -0.15208276 0.0036724494 0.015259608 -0.21750808 -0.18552443
-0.1538126 0.016029898 -0.19688359 -0.025783984 -0.16714276 -0.10129135 -0.11487051 -0.1505273
-0.37234962 -0.25315824 -0.050917827 0.013862848 0.07311728 -0.2594581 -0.56415725 -0.23175177
-0.16317104 -0.2000792 -0.13537765 -0.3197994 -0.21596475 -0.034696907 -0.07460428 0.019557377
-0.46417767 -0.02798441 0.023470836 0.8542719 0.12397413 -0.14518778 -0.63468343 0.05711444
00000000: efef 443e ebdc b4bd 1b4b 353d 685a c63d
00000010: 6643 863d 31b0 173e 4920 183e a5b6 75be
00000020: 8835 1fbe bfed 5d3b b460 65bd d158 b0bd
00000030: 29e8 0e3d d6e6 e43b 19a8 ee3c a021 debd
00000040: 5c93 97bd 447a c83b 4832 af3e db57 d0bd
00000050: 2952 18bd 62f5 4d3e 4623 adbd b0fd a93c
00000060: 7c75 cd3e 868f a43d 7322 b93e 1b9f a23d
00000070: a935 0fbd 7188 15be 4817 803d d4d3 47bd
00000080: 99a4 febc 688a 18be 1df7 603e 9112 ff3d
00000090: c45f 9f3e 99a3 34be b152 59be d00a 4f3e
000000a0: 685c a4bd 05be 1bbd 29e0 70bd 9983 223d
000000b0: 25e3 503e bda7 65bd b0d1 d8bd 3c34 7cbd
000000c0: d5ea 60be 4ec1 b8be 503a 92bd cdf4 9fbe
000000d0: dd2e c63e 2fba 123e c153 fa3d fa63 183e
000000e0: e8af a6be 1c4a 103e d0c8 24be db36 07bd
000000f0: f64c 5d3d fd11 93be c0ec 0a3c 4f00 44be
00000100: c9b1 6dbe 1253 2a3e 896d b6be b06f 103e
00000110: ab36 0abd 3f4d 0bbd b0be ecbc 0b98 7cbe
00000120: e5ce d03e 4f30 253e 5bb2 973d 8133 c7be
00000130: ee32 723e 6114 163e be67 c83d 538d d23d
00000140: bed6 31be 6b42 db3d a8a2 1ebd 95ea 9fbb
00000150: 1d34 053e 709d 4e3d 918a 2bbe 2f85 cfbc
00000160: e2b1 81bd 67ca 2e3e 9d48 103e 0eb2 1a3e
00000170: 3c0e 613d c7fb 70bd 276c 09be f590 bbbc
00000180: 4c0c 8b3e 181a e43e ec7e b1bd 0d4f debd
00000190: 5374 0e3f 9ce4 9d3e e81d 593e 83c2 5fbe
000001a0: c3fa 9b3e 0b3d d33d 411a 1bbe 396c 943c
000001b0: 8b84 65be 5964 a33e 1602 dbbe d338 b6be
000001c0: 6d17 3e3d d6fe f0bd 892d eabd bade c2be
000001d0: e69f c3be a458 c83d f8c2 213e 9b38 89be
000001e0: ea6b 53bd 7cf6 f9bd caa4 1c3f 713c 053f
000001f0: f35d cabe 62f9 32be 4a1f a8bd 0efe dd3d
00000200: f426 7a3e 69f5 7bbd 8f0c 893d 5c12 0b3e
00000210: d318 0c3e e380 b13d 7cea 1fbd 5be7 1dbe
00000220: 25a5 babd acf2 8c3d 48f8 f4bd f574 babe
00000230: eb85 e9bd 647b b53c 5247 403e 5bcf efbd
00000240: 16d6 723d 8c51 10bf 4295 93be 8699 74be
00000250: 3f04 9ebe 5d26 b5be df7d 8fbd 149f 133e
00000260: b169 cb3e 2752 033e 7884 fd3e d373 82be
00000270: a09c 203d 09eb eabd 9573 393e 60cb f7bd
00000280: 2728 62bd bd68 50bc e75c 11be 4ebb 3bbe
00000290: 02a7 17be 762d f13e c41e 06be 8f6c 90be
000002a0: ef05 78be 9e11 b2be 2434 863e ad5e 103e
000002b0: 1467 20be 4bb4 75be 6e09 d0be fc79 d43e
000002c0: 53a5 af3e e8f6 e83d 9697 d5bd f3f4 85be
000002d0: a212 e9be a68d 3d3d 6456 c13e b361 b73e
000002e0: 3ba3 5abd 22df 7a3e d9f1 2f3e 46e5 3cbe
000002f0: 1053 0f3e 4ae0 693e 87e2 56be fdab 183e
00000300: 51de a93e 4f56 5e3e d895 c53e 0b86 0d3d
00000310: 942e 6c3d c1c6 183d ba09 2e3d d66b b2bc
00000320: 9b06 9ebe a17a 3ebd c633 aa3e fe81 563e
00000330: d17b 7dbe 9c4c 42bd 128f 793e ba7b 8f3e
00000340: 1d54 00be 53c8 0abe cddb c93d 51d6 e23d
00000350: dc8f 9cbd 4806 95be bed2 64be b14c 74be
00000360: 761e 2f3d 2228 d3bd 0c60 aebe 95bb 1bbe
00000370: 7aad 703b 6f03 7a3c 70ba 5ebe 1efa 3dbe
00000380: 0d81 1dbe 2251 833c da9b 49be ef38 d3bc
00000390: 7927 2bbe d771 cfbd 3b41 ebbd d423 1abe
000003a0: 9ca4 bebe f59d 81be 368f 50bd 0021 633c
000003b0: 83be 953d b1d7 84be 9c6c 10bf 5650 6dbe
000003c0: 4f16 27be 90e1 4cbe 70a0 0abe bfbc a3be
000003d0: dd25 5dbe 581e 0ebd 21ca 98bd cb36 a03c
000003e0: b2a8 edbe 903f e5bc e945 c03c 90b1 5a3f
000003f0: 26e6 fd3d 1bac 14be 9d7a 22bf d5f0 693d

conv2.bias f4 [16]
-0.17028207 0.1831177 0.49654838 -0.019400105 0.062873654 -0.26425564 -0.24631752 -0.09474205
-0.05016412 -0.26800814 -0.018018922 -0.10626312 0.2807882 0.12705712 -0.15630461 0.08014871
00000000: 6c5e 2ebe 3583 3b3e 973b fe3e f8ec 9ebc
00000010: e7c3 803d 844c 87be a93a 7cbe 1f08 c2bd
00000020: e478 4dbd 5d38 89be 6b9c 93bc 7ba0 d9bd
00000030: 79c3 8f3e 431b 023e 510e 20be 0225 a43d

fc1.weight f4 [120, 256]
0.060656376 -0.054223996 -0.13073152 0.08318036 -0.023769442 0.05399511 0.08389265 -0.07120232
-0.15102255 0.02898094 0.16929841 -0.08940997 0.065321356 -0.110210136 -0.029902626 -0.19031169
-0.17507453 -0.2586257 -0.01056655 -0.016755667 0.01922881 0.12543745 0.047967512 -0.008499379
-0.103358865 -0.14179146 0.1380012 0.12045215 -0.14041203 -0.13734618 0.17588732 0.091295935
-0.13226487 0.014388446 0.06688527 -0.055337194 -0.023077281 0.05823236 0.07676119 0.10185052
-0.22054008 0.042128377 0.056740347 0.018086806 -0.13864744 -0.038360044 -0.10021389 -0.020978998
-0.03661331 0.13286147 -0.04424258 -0.020192739 0.016266774 0.109266154 -0.07464464 0.06961736
0.2392071 -0.014972519 -0.09019467 -0.0025124436 -0.06939562 -0.07559641 -0.08664722 -0.01839686
0.14368577 -0.011006536 0.031978197 -0.20113178 0.031662192 -0.07818944 0.081152335 0.022122834
-0.17838934 0.06400254 0.08874771 0.039152887 -0.17162314 -0.019682596 0.012481456 -0.026349964
0.03174387 -0.19973336 -0.04369938 0.028413724 0.12965566 0.18113305 0.09825047 0.041500982
0.08172323 0.18685235 -0.049234927 -0.042452052 0.034406815 0.1712841 -0.02220239 -0.0046478654
-0.048297092 -0.11729454 0.07705028 0.14293283 0.12777674 0.15922894 -0.05261889 -0.16159835
0.049150996 -0.053997245 -0.24245442 -0.01768805 0.1903027 -0.020197745 -0.08555585 0.024548963
0.21069044 0.101134926 -0.0077481293 0.06483154 -0.036233526 -0.015054658 -0.009827658 -0.16717719
0.15246074 -0.056190725 0.026545124 0.015835455 0.09011277 -0.043002002 -0.048672374 -0.29474285
0.0713244 -0.06368045 -0.029444436 -0.112820186 0.027037362 -0.009388021 0.021823581 -0.108067095
0.069886856 -0.023271004 -0.008072108 -0.019383073 0.03535686 0.029390419 0.08934816 0.03347547
0.10528732 -0.10869186 0.037328638 -0.15079966 -0.11874559 0.018544005 0.05773502 -0.094059594
0.1451759 -0.00443057 -0.050594743 -0.061535094 -0.049543504 0.18004979 0.010333086 0.0018691786
0.14990768 -0.037796285 0.014286439 -0.020245606 0.01016191 0.07307214 -0.010320328 0.041927423
0.09753984 -0.014257984 0.025053537 -0.11804383 0.0315665 -0.036959115 -0.09770087 0.14355588
-0.028338956 -0.068987995 0.038307652 0.1459602 0.08571618 -0.20847669 0.082364276 0.10504947
-0.070007876 -0.025089867 -0.045477703 0.13896352 0.1097218 0.18309988 0.07070576 -0.017593902
0.02488672 -0.050163608 -0.16016664 -0.19686095 -0.010478793 -0.22232336 0.023504449 -0.012049679
0.09098771 0.06040471 0.11624042 0.19522148 0.07964095 0.025834292 0.026459794 -0.009618183
-0.03649686 -0.0003825433 0.028577866 0.03433195 -0.20156778 -0.0772629 -0.0018332904 0.17914467
-0.04439412 -0.031466488 0.06947648 0.0096305 -0.069074996 0.2032829 -0.05605786 -0.114107616
-0.02177341 -0.047852855 0.02969911 0.14692117 0.046939306 0.12548098 0.0030458225 0.22039156
0.08217678 0.052274942 0.04744846 0.06619837 -0.039676826 0.07075135 -0.123566255 -0.07282852
0.091020994 0.18620364 -0.111140646 -0.050912295 -0.05150715 0.033582516 -0.08706844 0.041560195
-0.03241321 0.0069373487 0.0054499125 0.17638198 0.05069247 0.14347924 0.10920846 0.08897128
00000000: d272 783d fb19 5ebd 7cde 05be 775a aa3d
00000010: 22b8 c2bc fa29 5d3d e9cf ab3d 86d2 91bd
00000020: a8a5 1abe 7069 ed3c 905c 2d3e 931c b7bd
00000030: 34c7 853d dab5 e1bd 5af6 f4bc 11e1 42be
00000040: bd46 33be 966a 84be 531f 2dbc 2e43 89bc
00000050: bd85 9d3c ad72 003e 9579 443d fb40 0bbc
00000060: d0ad d3bd c831 11be 3050 0d3e 9eaf f63d
00000070: 2cc8 0fbe 7aa4 0cbe ce1b 343e 5df9 ba3d
00000080: 7170 07be 84bd 6b3c 25fb 883d 41a9 62bd
00000090: 910c bdbc 0e85 6e3d f934 9d3d 0197 d03d
000000a0: 42d5 61be ce8e 2c3d 9168 683d c82a 943c
000000b0: 98f9 0dbe 6c1f 1dbd f13c cdbd 26dc abbc
000000c0: d7f7 15bd d60c 083e b537 35bd 3e6b a5bc
000000d0: e641 853c efc6 df3d 4adf 98bd 8c93 8e3d
000000e0: b5f2 743e 4c4f 75bc fcb7 b8bd cfa7 24bb
000000f0: 4a1f 8ebd 4ad2 9abd 1974 b1bd 03b5 96bc
00000100: 5d22 133e c254 34bc 92fb 023d 7df5 4dbe
00000110: 37b0 013d c921 a0bd 3233 a63d f23a b53c
00000120: b2ab 36be c413 833d 5cc1 b53d c75e 203d
00000130: fabd 2fbe 653d a1bc 057f 4c3c e1db d7bc
00000140: dc05 023d e786 4cbe 1ffe 32bd e6c3 e83c
00000150: 74c4 043e f17a 393e 8b37 c93d effc 293d
00000160: 825e a73d 3956 3f3e 90aa 49bd 34e2 2dbd
00000170: 29ee 0c3d 1965 2f3e c9e1 b5bc 1f4d 98bb
00000180: 2cd3 45bd 1f38 f0bd 8acc 9d3d fc5c 123e
00000190: e8d7 023e e90c 233e e886 57bd 0a7a 25be
000001a0: 8e52 493d 372c 5dbd f945 78be 88e6 90bc
000001b0: b6de 423e be75 a5bc e837 afbd e81a c93c
000001c0: 3cbf 573e d41f cf3d 05e4 fdbb 66c6 843d
000001d0: 9b69 14bd d0a7 76bc 2f04 21bc 7f30 2bbe
000001e0: ab1e 1c3e 3f28 66bd 2975 d93c 5bb9 813c
000001f0: 0b8d b83d de22 30bd af5c 47bd 89e8 96be
00000200: 8712 923d e56a 82bd 7535 f1bc 450e e7bd
00000210: 757d dd3c 37d0 19bc 5ec7 b23c 4852 ddbd
00000220: d720 8f3d d5a2 bebc e040 04bc 40c9 9ebc
00000230: 5bd2 103d 2dc4 f03c 2bfc b63d 931d 093d
00000240: e1a0 d73d d799 debd eae5 183d 3a6b 1abe
00000250: e330 f3bd 99e9 973c 8e7b 6c3d 51a2 c0bd
00000260: fea8 143e 512e 91bb 6f3c 4fbd 390c 7cbd
00000270: 21ee 4abd f95e 383e 1b4c 293c 3aff f43a
00000280: 6681 193e 47d0 1abd ab11 6a3c 1dda a5bc
00000290: 247e 263c d9a6 953d 9816 29bc 17bc 2b3d
000002a0: f8c2 c73d 529a 69bc 133d cd3c f7c0 f1bd
000002b0: e04b 013d 7162 17bd 6517 c8bd 5000 133e
000002c0: 1927 e8bc 9449 8dbd 7ce8 1c3d 9776 153e
000002d0: f78b af3d ea7a 55be 9aae a83d 2d24 d73d
000002e0: 4a60 8fbd 4489 cdbc d446 3abd 744c 0e3e
000002f0: d3b5 e03d 897e 3b3e 2ece 903d 1621 90bc
00000300: 3cdf cb3c 5b78 4dbd b902 24be eb95 49be
00000310: 3eaf 2bbc bca8 63be 678c c03c 046c 45bc
00000320: c457 ba3d ee6a 773d 750f ee3d 24e8 473e
00000330: cb1a a33d 70a2 d33c 36c2 d83c 9595 1dbc
00000340: bb7d 15bd 1890 c8b9 211c ea3c a99f 0c3d
00000350: c967 4ebe 033c 9ebd 054b f0ba b371 373e
00000360: 9cd6 35bd 01e3 00bd af49 8e3d 3fc9 1d3c
00000370: 3177 8dbd 6429 503e ed9c 65bd 41b1 e9bd
00000380: 265e b2bc 5b01 44bd 8c4b f33c 8172 163e
00000390: 6e43 403d 167e 003e 6c9c 473b 53ae 613e
000003a0: 4d4c a83d 401e 563d 5159 423d 0393 873d
000003b0: 2b84 22bd 15e6 903d 4e10 fdbd 1e27 95bd
000003c0: 3769 ba3d 2bac 3e3e b59d e3bd 6989 50bd
000003d0: 29f9 52bd d28d 093d f050 b2bd 063b 2a3d
000003e0: b7c3 04bd b352 e33b 2e95 b23b 7a9d 343e
000003f0: e8a2 4f3d 39ec 123e afa8 df3d 9336 b63d

fc1.bias f4 [120]
0.07162188 0.07954642 -0.010870632 0.044989787 -0.08670849 0.009054789 0.032830063 -0.03327593
0.029148167 -0.06598538 0.011849626 -0.05064257 -0.07069994 0.040705994 0.027182925 -0.008194061
0.0748874 -0.008636107 0.005999366 -0.01874209 -0.09509129 -0.04933805 -0.009857338 0.0058363243
-0.031087063 0.10128486 0.06278021 -0.052995794 0.07474205 -0.053728078 0.06055524 0.099425636
0.01768662 -0.049992573 0.010097125 -0.039052244 0.036223438 0.025911603 0.03179154 -0.013595371
0.014343406 -0.03286089 -0.0076330234 0.011531236 -0.061736777 -0.036736596 -0.042595267 -0.058423087
-0.01974904 0.03665569 -0.07742614 -0.06619258 0.055798963 0.07377531 0.05327633 0.023539156
0.047260698 -0.03763538 -0.035682082 -0.018101629 0.04151371 0.04061806 0.048800528 0.07012404
0.005189631 -0.04710631 -0.0638913 -0.002311201 0.08787732 0.06595806 -0.01945066 0.11310051
-0.0012516412 0.077609666 0.0035919622 -0.05852016 0.0094991 0.036793303 -0.003955683 0.043962114
0.039120246 0.11387586 -0.0429003 0.047377277 0.018081186 0.014591383 -0.030688968 -0.040673334
-0.05582966 0.017260052 0.1107987 -0.046127256 0.026564281 -0.034390632 0.090180725 0.029887978
0.0018078238 -0.035632856 -0.046019785 0.00551498 0.0054603536 0.007258083 0.13207845 0.016264537
-0.01007219 0.1350791 0.018927386 0.01047719 0.095409855 0.0032138564 0.08577786 -0.007287814
-0.06563861 0.013686956 0.05047673 -0.066310704 -0.06438412 -0.07287153 0.066907234 0.010146773
00000000: 7eae 923d 3ce9 a23d bc1a 32bc 3647 383d
00000010: 3994 b1bd 8a5a 143c d178 063d 574c 08bd
00000020: 23c8 ee3c 5823 87bd ef24 423c 956e 4fbd
00000030: 21cb 90bd 54bb 263d baae de3c 6240 06bc
00000040: 915e 993d 757e 0dbc 5496 c43b 0389 99bc
00000050: 39bf c2bd b216 4abd ac80 21bc a33e bf3b
00000060: 4caa febc 706e cf3d e992 803d 1e12 59bd
00000070: 5c12 993d f911 5cbd c508 783d ab9f cb3d
00000080: 88e3 903c 03c5 4cbd 696e 253c 3ff5 1fbd
00000090: 075f 143d 9244 d43c d937 023d 1ebf 5ebc
000000a0: 9b00 6b3c 2499 06bd 711e fabb 82ed 3c3c
000000b0: b4df 7cbd 1d79 16bd 6078 2ebd 0c4d 6fbd
000000c0: bdc8 a1bc 4724 163d 9991 9ebd fa8f 87bd
000000d0: 748d 643d 8217 973d 4838 5a3d 30d5 c03c
000000e0: 6f94 413d 8e27 1abd 6027 12bd de49 94bc
000000f0: 480a 2a3d 1f5f 263d 10e3 473d 319d 8f3d
00000100: c80d aa3b 8cf2 40bd 71d9 82bd 8577 17bb
00000110: 06f9 b33d 0515 873d fe56 9fbc 3da1 e73d
00000120: 1c0e a4ba d1f1 9e3d 2067 6b3b d6b2 6fbd
00000130: 1da2 1b3c 93b4 163d ad9e 81bb 9e11 343d
00000140: 8d3c 203d bf37 e93d 3ab8 2fbd ad0e 423d
00000150: ff1e 943c b210 6f3c 6e67 fbbc 1599 26bd
00000160: a4ad 64bd f464 8d3c 6eea e23d efef 3cbd
00000170: 569d d93c 31dd 0cbd acb0 b83d a2d7 f43c
00000180: 80f4 ec3a c2f3 11bd 3e7f 3cbd 01b7 b43b
00000190: c4ec b23b 37d5 ed3b 933f 073e 353d 853c
000001a0: d405 25bc 2d52 0a3e 9b0d 9b3c 85a8 2b3c
000001b0: 3e66 c33d 909f 523b 4dac af3d 9dce eebb
000001c0: 896d 86bd 413f 603c b0c0 4e3d e8cd 87bd
000001d0: d2db 83bd ab3d 95bd a906 893d a73e 263c

fc2.weight f4 [84, 120]
-0.062754884 -0.07752442 -0.052946616 -0.07735308 -0.066556 0.055433188 -0.07039129 -0.034280468
0.077024885 -0.012660264 0.019805152 -0.074755006 0.030683732 -0.087035224 -0.0652829 0.07321687
-0.031767927 0.09364906 -0.04788719 -0.058609746 -0.031904295 -0.0038015905 -0.018744895 -0.015097789
-0.052061975 0.06732469 0.028553678 -0.0075039216 0.092734575 -0.01740871 -0.052442245 -0.049148347
-0.0060121035 0.11210624 -0.073505186 -0.054238092 -0.057069834 0.04325655 -0.027368778 -0.02620575
-0.06728624 -0.03820257 -0.050477516 0.046286814 -0.047726445 -0.084223 0.047431845 -0.014321453
-0.021146486 0.08492266 -0.037001576 -0.028272638 -0.043163534 -0.047154315 -0.06846881 -0.083192304
-0.0846339 -0.08787938 -0.019741338 -0.045369606 -0.10391634 -0.018155316 -0.10117294 0.02787791
0.0062150178 0.08829785 0.05413197 0.061748378 -0.080446616 0.10536683 -0.003567418 -0.03261536
0.06039807 0.0045038424 -0.022835579 -0.00688281 -0.06913564 -0.05931194 -0.042043004 0.011008079
0.10093465 0.056964267 -0.0030471673 0.072090134 0.038933393 0.06300637 -0.06810428 -0.10060394
0.021586614 0.07015416 -0.06567878 0.008006167 -0.035381146 0.056240182 -0.07053579 0.09395721
-0.048671786 -0.01266042 -0.08284467 0.0025259496 -0.043604985 0.04864535 -0.061343506 -0.0039922167
0.08082594 -0.027688544 0.011304153 -0.08869364 -0.06492169 0.068433896 -0.06182228 0.06554782
0.032585487 0.10399967 0.06604127 0.08700625 -0.039440177 -0.09042064 -0.08934581 -0.07807269
0.18599567 0.21552472 -0.015683983 -0.31608033 -0.048103333 0.06577281 0.0960342 0.030818488
-0.017301405 0.17587867 0.2469942 0.036974344 0.18524212 0.0043182774 -0.0181959 -0.015682314
0.18216623 -0.12061372 0.044529438 -0.08078277 -0.105947554 0.16919218 -0.15292972 -0.24262686
0.03368264 -0.057240207 -0.21494104 -0.20280248 -0.032492153 -0.19157512 0.062844306 -0.008351836
-0.07512261 0.040200893 -0.027835015 -0.13528645 -0.039621953 0.055383377 0.101208575 -0.050788067
-0.046490654 -0.108531035 0.06662836 -0.057124745 -0.047277294 -0.026044428 -0.10128818 0.021768257
-0.027458446 0.18266974 0.09967822 0.024522789 0.030867904 -0.030467201 -0.011625364 -0.25019318
0.066508 0.04765803 -0.073924884 0.0862543 -0.054955415 -0.1894166 -0.17044131 -0.0057427394
-0.14087757 -0.12470538 -0.1573969 -0.088913366 -0.00021742971 0.16168468 0.032237902 -0.20012413
0.052077174 -0.02907724 0.111875825 0.08749004 0.0009326051 0.013575661 -0.04043122 0.18630739
-0.24736705 0.13176636 -0.037128143 0.1854554 0.031931855 0.0036365802 -0.06904773 0.0021650097
-0.104244016 0.016458375 -0.14322464 0.069247775 -0.2925886 0.016767599 -0.059385095 0.020102283
0.1269805 0.19711801 0.14489257 0.081059806 -0.064620994 -0.2212025 -0.17662065 0.09755278
0.05177342 -0.050239105 -0.049208283 0.012104839 0.12475424 0.061890595 0.15714207 0.112161495
0.08821196 -0.11654056 0.18629628 -0.0710575 0.0056391736 -0.05846971 0.12923257 -0.011934328
0.1324117 0.14384298 -0.09520321 0.08857581 -0.21754211 0.21858151 0.023857769 -0.0056641144
0.12840328 0.10118075 0.20708162 0.12047048 0.1703006 0.04830128 0.11408782 0.07180869
00000000: a285 80bd 20c5 9ebd 8dde 58bd 4b6b 9ebd
00000010: 834e 88bd e90d 633d 4f29 90bd ad69 0cbd
00000020: 39bf 9d3d ff6c 4fbc 6a3e a23c 2719 99bd
00000030: 735c fb3c 863f b2bd 0bb3 85bd baf2 953d
00000040: 161f 02bd 14cb bf3d 5c25 44bd c610 70bd
00000050: 14ae 02bd 1b24 79bb e58e 99bc b75c 77bc
00000060: f03e 55bd 87e1 893d 67e9 e93c 75e3 f5bb
00000070: a0eb bd3d b69c 8ebc aecd 56bd c74f 49bd
00000080: 2e01 c5bb f597 e53d e389 96bd c328 5ebd
00000090: 0fc2 69bd c82d 313d 7d34 e0bc 71ad d6bc
000000a0: 5ecd 89bd 4c7a 1cbd 83c1 4ebd 3e97 3d3d
000000b0: ce7c 43bd 1c7d acbd e547 423d 87a4 6abc
000000c0: 653b adbc eeeb ad3d f78e 17bd 059c e7bc
000000d0: 3fcc 30bd e224 41bd 6039 8cbd ba60 aabd
000000e0: 8a54 adbd 1bfa b3bd 96b8 a1bc 7bd5 39bd
000000f0: 17d2 d4bd 75ba 94bc c233 cfbd 3760 e43c
00000100: 59a7 cb3b 81d5 b43d 7cb9 5d3d deeb 7c3d
00000110: 32c1 a4bd 91ca d73d 58cb 69bb af97 05bd
00000120: f763 773d f894 933b ae11 bbbc 3289 e1bb
00000130: fd96 8dbd 14f1 72bd 4935 2cbd 3b5b 343c
00000140: d3b6 ce3d 5d53 693d fcb2 47bb fea3 933d
00000150: 9f78 1f3d 7c09 813d 427a 8bbd 7009 cebd
00000160: 69d6 b03c fcac 8f3d 9982 86bd 4c2c 033c
00000170: d2eb 10bd 1b5c 663d 1175 90bd a36c c03d
00000180: 115c 47bd a66d 4fbc 77aa a9bd 678a 253b
00000190: 249b 32bd 5940 473d 5443 7bbd 24d1 82bb
000001a0: 1288 a53d 16d3 e2bc 0e35 393c 03a5 b5bd
000001b0: aaf5 84bd 1227 8c3d 5c39 7dbd ef3d 863d
000001c0: 5c78 053d c7fd d43d a540 873d 5530 b23d
000001d0: 068c 21bd 752e b9bd f0fa b6bd 93e4 9fbd
000001e0: a675 3e3e 83b2 5c3e b27b 80bc 48d5 a1be
000001f0: 0008 45bd e5b3 863d 94ad c43d 0e77 fc3c
00000200: adbb 8dbc 8a19 343e 0cec 7c3e 6972 173d
00000210: 1cb0 3d3e 5680 8d3b 910f 95bc 3278 80bc
00000220: c989 3a3e 5304 f7bd 8064 363d 7071 a5bd
00000230: 08fb d8bd b740 2d3e 9c99 1cbe 2d73 78be
00000240: cff6 093d b574 6abd 8119 5cbe 74ab 4fbe
00000250: 7e16 05bd 452c 44be 84b4 803d 24d6 08bc
00000260: e2d9 99bd b1a9 243d 4206 e4bc 8888 0abe
00000270: a14a 22bd aed9 623d 7146 cf3d 2607 50bd
00000280: fc6c 3ebd 8545 debd 7374 883d a3fb 69bd
00000290: d6a5 41bd 205b d5bc 2d70 cfbd 5853 b23c
000002a0: 89f0 e0bc c70d 3b3e 1824 cc3d 04e4 c83c
000002b0: b0de fc3c 5a96 f9bc 5078 3ebc 5219 80be
000002c0: 5935 883d 1135 433d ee65 97bd 18a6 b03d
000002d0: ee18 61bd 6df6 41be 2b88 2ebe 972d bcbb
000002e0: 3642 10be 8965 ffbd a72c 21be 3618 b6bd
000002f0: d8fd 63b9 ab90 253e e40b 043d 57ed 4cbe
00000300: e04e 553d 6433 eebc 271f e53d fa2d b33d
00000310: 127a 743a 736c 5e3c 359b 25bd 5dc7 3e3e
00000320: ca4d 7dbe c3ed 063e ae13 18bd 05e8 3d3e
00000330: faca 023d b153 6e3b e568 8dbd d6e2 0d3b
00000340: e37d d5bd b7d3 863c 7ba9 12be c7d1 8d3d
00000350: 2cce 95be 345c 893c c93d 73bd 8bad a43c
00000360: 2d07 023e 4ed9 493e b85e 143e af02 a63d
00000370: 0358 84bd e882 62be 0bdc 34be c0c9 c73d
00000380: 5e10 543d 85c7 4dbd a08e 49bd 6053 463c
00000390: 277f ff3d fe80 7d3d dae9 203e edb4 e53d
000003a0: 79a8 b43d d1ac eebd 74c4 3e3e 9886 91bd
000003b0: d1c8 b83b ef7d 6fbd 8b55 043e 3388 43bc
000003c0: ef96 073e 934b 133e e7f9 c2bd 3c67 b53d
000003d0: 5cc3 5ebe d5d3 5f3e 5e71 c33c 099a b9bb
000003e0: 267c 033e da37 cf3d 340d 543e 3ab9 f63d
000003f0: 4863 2e3e 90d7 453d e0a6 e93d 6f10 933d

fc2.bias f4 [84]
-0.016884713 -0.04210496 0.037492104 0.19926447 -0.04628135 0.0751302 0.066643596 0.11078245
-0.04075105 0.10263551 0.16156678 -0.018586384 0.016597899 0.043312304 -0.043971583 -0.022155965
-0.0434266 -0.18862414 0.12000597 0.2055006 -0.066021636 0.11885662 -0.077459134 -0.02364513
0.16268985 0.0647055 0.045952253 0.055143803 0.20853537 -0.07066708 -0.1171922 -0.05584108
-0.10864235 0.0785673 -0.039398227 -0.007440285 0.00048816914 0.055517185 0.048395984 0.04700864
-0.017553773 0.142977 -0.090914354 -8.473756e-06 0.10542323 -0.08918267 0.107431404 -0.10885836
0.023053734 0.08248378 0.019211458 -0.023420803 -0.08142194 0.14434893 0.05866663 -0.09313749
-0.04472764 0.1729318 -0.024897313 -0.040024452 0.09055432 -0.008609066 -0.014292651 0.08662781
-0.086148344 0.024358807 -0.06827745 0.09042626 -0.054512296 -0.00760988 -0.02270789 0.13007544
0.10496093 -0.013666556 0.12963425 -0.07595653 -0.059796933 -0.02624473 0.011744188 -0.006278263
0.03430535 -0.00016560606 0.09941944 0.044153444
00000000: cf51 8abc 4076 2cbd 5291 193d fc0b 4c3e
00000010: 8391 3dbd dddd 993d 707c 883d e9e1 e23d
00000020: 93ea 26bd 9132 d23d c371 253e 7942 98bc
00000030: 51f8 873c 3e68 313d 8c1b 34bd 6d80 b5bc
00000040: 17e0 31bd b026 41be b1c5 f53d c06e 523e
00000050: 5a36 87bd 196b f33d e5a2 9ebd 6fb3 c1bc
00000060: 2b98 263e 5184 843d 6e38 3c3d 78de 613d
00000070: 4c8a 553e e7b9 90bd 7702 f0bd 9eb9 64bd
00000080: e17f debd e5e7 a03d 0960 21bd a2cd f3bb
00000090: f4f0 ff39 fd65 633d de3a 463d 228c 403d
000000a0: eecc 8fbc 9068 123e 4e31 babd 812a 0eb7
000000b0: 22e8 d73d 67a5 b6bd ff04 dc3d 22f1 debd
000000c0: 2fdb bc3c 42ed a83d 5961 9d3c fcdc bfbc
000000d0: 8cc0 a6bd 35d0 133e 6c4c 703d debe bebd
000000e0: 5434 37bd 0915 313e 73f5 cbbc aef0 23bd
000000f0: 8b74 b93d 0a0d 0dbc b92b 6abc ec69 b13d
00000100: 8b6e b0bd 1f8c c73c 0cd5 8bbd 6731 b93d
00000110: 4948 5fbd 4d5c f9bb e605 babc 7f32 053e
00000120: c2f5 d63d b1e9 5fbc d7be 043e 198f 9bbd
00000130: a1ed 74bd 30ff d6bc b26a 403c e3b9 cdbb
00000140: c483 0c3d 8aa6 2db9 6b9c cb3d 3eda 343d

fc3.weight f4 [10, 84]
0.045378905 0.16789109 0.004676891 -0.5661102 0.17563474 0.13874379 0.016189018 0.24830467
-0.12890057 -0.48836887 0.33531904 0.17019162 -0.10664213 -0.33374327 0.14210622 -0.25078332
0.24241817 0.29027683 0.42506245 0.16510516 0.068816654 -0.18849039 0.3810685 0.6216035
0.075086854 0.08282249 -0.24149153 0.34658083 0.29504612 0.4581751 0.2518271 -0.3977215
0.09152108 0.19309069 0.26588562 0.21055378 0.4412526 0.37363636 0.013657963 -0.3928566
-0.25280356 0.26092166 -0.07815972 0.17157675 -0.1556994 0.14706942 0.5451517 0.26341566
0.04142022 -0.4466116 0.35493198 0.37094176 -0.30614853 0.34234354 -0.00974872 0.08385332
-0.041335765 -0.31470007 0.10658299 -0.048113268 -0.14464715 0.08315834 0.19152813 0.17214894
0.29318953 0.0059898854 -0.14097977 -0.2802358 -0.070641205 -0.46681494 0.15727405 0.08652066
-0.2783869 -0.114969134 -0.50298727 0.30799246 0.30882925 0.23875907 0.10473788 -0.11226043
0.1447196 -0.14715074 0.07859774 0.031164924 0.08699547 -0.2952554 0.36363724 0.011036547
0.23693056 -0.26016057 0.17189927 -0.12103584 -0.23244986 -0.45451182 -0.122224145 -0.042869065
0.13678876 0.09342594 0.17743917 0.2927461 0.04003706 -0.23584683 0.045828354 -0.09522286
-0.07126263 -0.14921772 0.015210083 -0.06397086 -0.15893042 -0.12954412 -0.20989795 -0.23682743
-0.51956445 -0.07544861 0.42016876 -0.17451087 -0.087732084 0.062251624 0.1685554 0.13685594
-0.012732669 -0.33133912 -0.14746489 0.043155137 0.15870719 -0.39985612 -0.035451557 -0.15822922
-0.24019638 0.0994078 0.16354898 -0.16672608 0.50017804 0.1398547 -0.15076393 0.08484973
-0.18894465 -0.17284039 -0.19023539 0.00076044444 -0.11423866 -0.25846055 0.09600418 0.12195734
0.13613775 0.17916436 -0.10793852 0.12514487 0.44531047 -0.022419855 -0.12012561 -0.2968592
0.044463154 0.22099228 -0.096816696 -0.34897032 0.16118161 -0.024697462 -0.45434585 0.003130751
-0.31250453 0.02629143 0.108195186 0.097311504 0.20086128 0.48207107 -0.10112712 0.28922075
-0.1419148 -0.31452617 0.3309945 -0.32465953 -0.48063788 0.3159297 0.62582374 0.18413004
0.021351462 0.3667631 -0.062616006 0.25447404 0.20389546 0.24875017 0.17736532 -0.054741547
0.40493575 -0.40046912 -0.49576923 0.4928441 0.0055459496 0.072310954 0.06973641 0.27089718
0.08645961 -0.1692914 -0.4123538 0.27605015 0.40307182 -0.09537607 0.029019162 0.2882487
0.45816725 0.39509338 -0.591921 0.14886856 -0.3116029 -0.07055379 -0.3735319 0.24797568
0.083083 0.13479343 -0.04354199 0.20071553 0.11050558 -0.10471199 0.0032556385 -0.5245439
0.059093557 -0.22307348 -0.1975316 0.28917706 -0.115546405 -0.026215224 0.3429833 0.06165173
0.18228707 0.32950705 -0.56624866 -0.18280064 -0.44164822 -0.3060017 -0.059827276 -0.22859697
0.34139466 0.20149982 -0.32189804 -0.32808787 -0.26818037 -0.11755015 0.5516884 0.3391871
-0.4675679 0.16154778 0.2990096 0.1238385 -0.4063571 -3.24465e-05 -0.23334172 0.12493214
-0.7356661 0.083818175 0.12551336 0.3290196 0.08465412 0.42705664 0.3885234 0.11316035
00000000: 3bdf 393d a4eb 2b3e 9b40 993b 99ec 10bf
00000010: 98d9 333e da12 0e3e d59e 843c 9443 7e3e
00000020: 83fe 03be 7c0b fabe f0ae ab3e b646 2e3e
00000030: 3067 dabd 66e0 aabe 4b84 113e ac66 80be
00000040: 783c 783e 2a9f 943e c9a1 d93e 5411 293e
00000050: bfef 8c3d a003 41be 691b c33e 6821 1f3f
00000060: 23c7 993d d69e a93d 8e49 77be 0b73 b13e
00000070: 4910 973e ed95 ea3e 7bef 803e 27a2 cbbe
00000080: 676f bb3d 91b9 453e 2922 883e 699b 573e
00000090: dceb e13e 444d bf3e a6c5 5f3c 8024 c9be
000000a0: 786f 81be 8697 853e 3412 a0bd d1b1 2f3e
000000b0: aa6f 1fbe 5e99 163e 108f 0b3f 6bde 863e
000000c0: 40a8 293d 47aa e4be a5b9 b53e 14ec bd3e
000000d0: 80bf 9cbe a747 af3e 18b9 1fbc 4abb ab3d
000000e0: b14f 29bd 5e20 a1be 2f48 da3d 6b12 45bd
000000f0: 621e 14be eb4e aa3d f31f 443e d047 303e
00000100: f01c 963e cd46 c43b 005d 10be 117b 8fbe
00000110: 56ac 90bd 5e02 efbe 730c 213e be31 b13d
00000120: ba88 8ebe f074 ebbd c6c3 00bf 30b1 9d3e
00000130: de1e 9e3e 427d 743e d080 d63d cce8 e5bd
00000140: 6031 143e afae 16be daf7 a03d 954d ff3c
00000150: ae2a b23d b72b 97be a92e ba3e a2d2 343c
00000160: ed9d 723e c433 85be 5d06 303e a3e1 f7bd
00000170: 5607 6ebe c6b5 e8be a750 fabd 7997 2fbd
00000180: 5a12 0c3e 1956 bf3d 9db2 353e d1e2 953e
00000190: e6fd 233d d581 71be 83b6 3b3d 3404 c3bd
000001a0: 24f2 91bd 88cc 18be b633 793c 2703 83bd
000001b0: a8be 22be 37a7 04be 7def 56be e482 72be
000001c0: 2d02 05bf cd84 9abd 5c20 d73e fab2 32be
000001d0: e1ac b3bd 8ffb 7e3d c999 2c3e f723 0c3e
000001e0: af9c 50bc 48a5 a9be 0901 17be 71c3 303d
000001f0: 2384 223e f1b9 ccbe a735 11bd d706 22be
00000200: 0af6 75be 5196 cb3d 6279 273e 3eba 2abe
00000210: ab0b 003f 1236 0f3e dc61 1abe b2c5 ad3d
00000220: b57a 41be 12fd 30be 11cd 42be 9058 473a
00000230: f5f5 e9bd f154 84be d79d c43d c5c4 f93d
00000240: b267 0b3e dd76 373e df0e ddbd fa25 003e
00000250: bcff e33e d8a9 b7bc 6a04 f6bd eefd 97be
00000260: ff1e 363d cd4b 623e d547 c6bd 3dac b2be
00000270: cb0c 253e 5552 cabc 05a0 e8be 492d 4d3b
00000280: 9800 a0be 2061 d73c 7095 dd3d 414b c73d
00000290: 94ae 4d3e 05d2 f63e bc1b cfbd be14 943e
000002a0: 1d52 11be 9309 a1be 1c78 a93e c639 a6be
000002b0: 2b16 f6be 8ac1 a13e fc35 203f 968c 3c3e
000002c0: 43e9 ae3c 5fc8 bb3e d23c 80bd 6c4a 823e
000002d0: f9c9 503e 5db8 7e3e 419f 353e ac38 60bd
000002e0: bd53 cf3e 4a0a cdbe 77d5 fdbe 1056 fc3e
000002f0: ccba b53b c417 943d f7d1 8e3d 09b3 8a3e
00000300: bc11 b13d ba5a 2dbe 0a20 d3be 7256 8d3e
00000310: 6e5f ce3e 8754 c3bd 98b9 ed3c 5595 933e
00000320: e694 ea3e ae49 ca3e 2288 17bf 0071 183e
00000330: 6a8a 9fbe 817e 90bd 933f bfbe 56ed 7d3e
00000340: 6b27 aa3d 4a07 0a3e 1659 32bd 5f88 4d3e
00000350: c050 e23d 3d73 d6bd 8d5c 553b 8248 06bf
00000360: 160c 723d 606d 64be b945 4abe 040f 943e
00000370: 98a3 ecbd 4fc1 d6bc 829b af3e 8686 7c3d
00000380: 76a9 3a3e 26b5 a83e acf5 10bf 1730 3bbe
00000390: b71f e2be 41ac 9cbe 720d 75bd 5315 6abe
000003a0: 48cb ae3e f855 4e3e d2cf a4be 22fb a7be
000003b0: f04e 89be 22be f0bd 733b 0d3f eea9 ad3e
000003c0: 0f65 efbe c86c 253e c917 993e 0a9f fd3d
000003d0: 0a0e d0be 2a17 08b8 22f1 6ebe 6cdc ff3d
000003e0: 9d54 3cbf dda8 ab3d 9386 003e 4275 a83e
000003f0: 245f ad3d 2ba7 da3e 8aec c63e 9dc0 e73d

fc3.bias f4 [10]
-0.14251836 -0.02056526 0.1147916 -0.060018074 -0.033011507 -0.15629633 0.31848696 0.051439807
0.20775048 -0.017922906
00000000: 55f0 11be 7a78 a8bc dc17 eb3d 83d5 75bd
00000010: 1337 07bd 250c 20be b910 a33e 8cb2 523d
00000020: 8bbc 543e 0fd3 92bc
